MYModel.tflite (tflite, 2584 bytes, 4 tensors)

arith.constant f4 [7, 18]
000000 b0 d9 9f 3e c3 0b 14 3f ad 05 a0 3f 58 e0 9a be
       0.3122077 0.57830447 1.2501732 -0.30249286
000010 31 b1 db 3f 53 04 f1 3e de c3 38 3f 68 78 3c 3f
       1.716345 0.47073612 0.7217387 0.73621225
000020 87 5c 6d 3f e5 9e 00 40 17 c3 d9 3e 90 71 73 be
       0.9271931 2.0096982 0.42531654 -0.2377379
000030 83 4f 39 c0 d2 cd 9b be 7b 0e 1f 40 c5 03 80 bf
       -2.895478 -0.30430466 2.4852588 -1.000115
000040 28 e7 4c 3d d9 7d 4b 3f 90 04 60 3f 8a 3e f6 3f
       0.050025135 0.79488903 0.8750696 1.9237835
000050 40 1a 02 c0 ac 6c 17 be a9 26 34 3f 0c 16 4c 3e
       -2.0328522 -0.14787549 0.7037149 0.19930285
000060 66 0a 27 40 89 d9 de 3f 9f fc b1 3f c0 05 00 bf
       2.6100097 1.7410136 1.3905219 -0.50008774
000070 86 09 21 3e 62 32 76 bf 28 10 42 3f d8 65 df bf
       0.15726289 -0.9617063 0.758059 -1.7452955
000080 bf 78 fc 3e 90 fc ff 3e 8d 87 ac 3f 9c 5b cc bf
       0.49310872 0.49997377 1.3478867 -1.5965457
000090 fa 1f 00 40 8f a6 db 3f f8 b8 c3 bf 67 cc 9d be
       2.0019517 1.7160205 -1.5290823 -0.3082001
0000a0 6b a2 1b c0 94 ed bd 3f f0 c8 33 bf a7 0e a7 bf
       -2.4317882 1.4838128 -0.7022848 -1.3051347
0000b0 a3 e6 18 3f eb d7 ba 3f 52 76 08 3e 82 bf 5b bf
       0.59726924 1.4597143 0.13326386 -0.8583909
0000c0 18 e7 63 3d df ab 85 be bc 5b a2 3e 71 4e e3 3f
       0.05564031 -0.2610769 0.31710613 1.7758313
0000d0 f0 d1 ef 3e 76 18 9b bf 07 21 25 3d 28 02 4c bf
       0.46839857 -1.211684 0.0403147 -0.7969079
0000e0 7a 4b 9c bf 0d 3f ee 3e 9f 7a ec 3f 13 8b 11 40
       -1.2210534 0.4653248 1.8474921 2.2741134
0000f0 54 a1 33 c0 d0 b2 d4 be 00 63 79 3f 05 68 74 3f
       -2.8067217 -0.41542673 0.97416687 0.9547122
000100 0f f4 dc 3e bf 66 86 3f f5 fa b0 bf b7 57 8e bd
       0.43154952 1.0500106 -1.3826586 -0.06950324
000110 2a 3d 9e 3f 77 39 b2 bf 99 21 6e 3f 2e ff ec be
       1.2362416 -1.3923787 0.93020016 -0.46288437
000120 71 28 8c bf 4f 6c 65 be ac b3 c0 3f d5 26 cc be
       -1.0949842 -0.22404598 1.5054832 -0.39873376
000130 4e 93 0d be 43 65 09 40 0b c0 bf 3e d3 c9 3b 3f
       -0.13825724 2.1468055 0.37451205 0.73354834
000140 c8 01 71 3f 9b 39 aa bf 88 f3 40 3d a6 5c 88 3f
       0.9414334 -1.329883 0.04710725 1.0653274
000150 38 b2 7c bf da f6 a3 bf d2 74 1d bf 45 67 91 bf
       -0.9870944 -1.2809708 -0.6150638 -1.135964
000160 dc 48 32 3f 94 85 95 3f 0f 11 d0 3f 14 b6 ba 3e
       0.69642425 1.168139 1.6255206 0.3646704
000170 a9 8c 6e 3f 1c 58 44 be 85 e0 cc bf 68 8a 61 3f
       0.9318338 -0.19174236 -1.6006018 0.88101816
000180 62 ce be bf 9d 36 b2 bf 43 df a5 3c c1 88 4c 3f
       -1.4906733 -1.3922917 0.020248061 0.7989617
000190 44 7b cd be d4 f1 fe be 23 64 01 c0 43 94 f4 3f
       -0.40133107 -0.49793875 -2.0217369 1.9107746
0001a0 ef 63 00 bf ea c4 d2 be 1f f5 56 3e 8d ba 88 3f
       -0.50152487 -0.41165859 0.20991944 1.0681931
0001b0 5e 7e 09 40 37 8b 35 3d a3 9e 1e bf 80 8f ef bb
       2.1483378 0.04432222 -0.6196081 -0.0073108077
0001c0 d4 79 1f 40 d1 30 03 40 03 d0 56 3f eb ca e9 bf
       2.4918108 2.0498545 0.8391115 -1.8265051
0001d0 ac 06 47 bf 05 56 8f bf 80 20 e4 bc 36 71 91 3f
       -0.77744555 -1.1198126 -0.027847528 1.1362674
0001e0 53 1f a2 bf 38 2e 1d 3c 08 4f 5e bf e9 4b 91 3f
       -1.2665809 0.009593539 -0.8683934 1.1351291
0001f0 b1 95 1c bf 66 35 7e be
       -0.6116591 -0.24825057

arith.constant1 f4 [7]
000000 54 45 28 be 2b 1f 05 3f a7 59 ed 3e 96 e3 ba 3e
       -0.16432697 0.52000684 0.46357462 0.3650176
000010 ba 54 34 bd 42 8d 1e 3f 57 b5 4c be
       -0.044026114 0.6193429 -0.1999105

sequential_1_1/dense_2_1/BiasAdd/ReadVariableOp f4 [18]
000000 16 a6 3d b8 c0 33 5e 3f 72 d8 1b bf 00 00 00 00
       -4.521579e-05 0.86797714 -0.60877144 0.0
000010 ac 34 c3 39 4c 9b 87 3f 18 03 a7 39 b3 0a 2a 3f
       0.00037232542 1.0594268 0.00031855027 0.66422576
000020 f4 57 0f 3f 39 90 31 3f 00 00 00 00 f6 d9 20 b7
       0.5599358 0.6936069 0.0 -9.587491e-06
000030 40 a7 8d 3e b2 0b 0a 3f 78 4b 21 bf 6b ab de 3d
       0.27666664 0.53924096 -0.6300578 0.10872539
000040 b6 ec 5f 3f e3 b9 ae be
       0.8747057 -0.34126195

sequential_1_1/dense_2_1/MatMul f4 [18, 4]
000000 46 a2 d7 3f 42 29 01 c0 9e 4a 29 3f d7 23 b5 3e
       1.6846397 -2.0181432 0.6612948 0.35378906
000010 02 3d 8e bf 79 bd 79 3e 52 54 ad 3f 51 3c 8e bf
       -1.1112368 0.24388684 1.3541358 -1.1112157
000020 91 27 88 3f 9c df 1b 3f b4 46 d6 3f 57 02 88 bf
       1.0637075 0.60888076 1.6740327 -1.0625714
000030 6c a1 b7 be 7c c7 7c be 48 55 3a bd 3a e7 df be
       -0.35865343 -0.24685472 -0.045491487 -0.437311
000040 ae de fb bf b0 9b f6 bf 47 de fb 3f c9 17 27 bd
       -1.9677331 -1.9266262 1.9677209 -0.040794168
000050 25 d3 6d 39 bf 9b 87 bf d5 3c c9 3f f1 17 c9 bf
       0.00022680739 -1.0594405 1.572169 -1.5710431
000060 a0 73 39 3f ed 81 e6 bf 5a e2 89 3f d6 96 e6 bf
       0.72442055 -1.80084 1.0772202 -1.8014781
000070 e5 82 e6 bf 87 d6 60 bf 49 0a 6c 3f b4 29 5b 3e
       -1.8008696 -0.8782734 0.92203194 0.21402627
000080 38 88 7f 3f 5b 63 94 be 76 c3 35 bf b5 48 0f bf
       0.9981723 -0.28982052 -0.71001375 -0.5597032
000090 9e cf db bf b2 98 31 bf d6 50 31 bf 25 19 ef 3f
       -1.7172735 -0.6937362 -0.6926397 1.8679549
0000a0 68 36 7c bd 80 92 69 bd b0 5d e7 be d6 40 37 be
       -0.061575323 -0.05702448 -0.45188665 -0.17895827
0000b0 15 a0 0d 3f 1c 16 69 3f c6 00 75 3f 5a 31 3a 3f
       0.5532239 0.9104936 0.95704305 0.72731555
0000c0 92 92 a8 bf 23 c0 d6 bf cb ed b5 3f c3 56 b3 3f
       -1.316973 -1.6777385 1.4213194 1.4010853
0000d0 59 6f 5e bf f9 37 80 3f 6a 36 3b 3d 3a f2 2b bf
       -0.86888653 1.0017081 0.04570619 -0.67166483
0000e0 5a ef f0 bf 61 7e 21 3f f9 56 e8 3f 40 68 21 3f
       -1.8823044 0.63083464 1.8151542 0.630497
0000f0 02 16 bd bf 49 d5 af 3f b2 e2 40 be 32 4b d8 3f
       -1.4772341 1.3736964 -0.18836477 1.6897948
000100 bd e1 38 3f da c4 2b 3e 32 5f 85 bf 89 6b 38 bf
       0.7221945 0.16774312 -1.0419676 -0.72039086
000110 71 b5 a9 3f e8 a4 ae 3e d3 60 d9 3f 0e ac a9 bf
       1.3258497 0.34110188 1.6982673 -1.3255632
