MYModel.tflite (tflite, 2508 bytes, 4 tensors)

arith.constant f4 [7, 16]
2.2193856 0.43957788 -0.9801115 1.1929692 1.5083456 -1.6430974 0.5523078 -2.4063036
0.40563542 -0.35375124 -0.3375465 2.5395906 0.13411342 0.8273673 0.07441829 -2.0998511
0.21926732 -0.9807948 0.99491215 2.2924552 0.86469245 2.0236084 2.2666948 0.45410612
1.6929348 -0.6427452 -1.8503964 1.7582058 -0.34187317 -1.7615279 -0.91374266 -1.0312072
0.6915488 -1.063762 0.9083112 -1.6060122 -0.40768382 1.5744557 2.3104954 1.4401091
1.0815449 0.69289964 -0.1650342 0.39020324 0.3022864 0.63061357 2.2865217 1.2467792
1.4575117 -0.41100973 -1.0738689 -0.5955534 0.83848125 1.0217493 -2.2741187 -2.4695117
-0.2626101 0.07947188 0.17802659 1.4820508 -0.08888076 1.7230467 -1.5554639 2.140113
-1.4111161 0.37874663 -0.5203299 1.8037795 -0.06227939 -1.4357783 0.50652164 0.98427176
-1.5980333 -0.08519519 1.3007336 0.45400986 0.032588422 0.4968113 -2.2714624 0.65561193
-1.7011744 -0.119024955 0.07616776 0.4172275 -2.3631208 0.042647667 1.2517413 -0.06810718
0.27263707 -0.74904734 0.17274436 -0.7121661 -0.5589138 1.8752383 1.7239714 0.96857184
-2.3566253 -0.11215903 0.7488493 0.017184993 -1.3445466 1.5122951 1.3142956 -3.1179183
0.3449017 1.2370507 -0.47715646 -2.1065323 0.27591345 1.9069365 0.7598499 0.39211616
00000000: 6a0a 0e40 5a10 e13e 96e8 7abf 37b3 983f
00000010: 7811 c13f 0451 d2bf 0b64 0d3f e100 1ac0
00000020: 72af cf3e e21e b5be e5d2 acbe a788 2240
00000030: 0755 093e 58ce 533f 9e68 983d f663 06c0
00000040: 9d87 603e 5e15 7bbf 90b2 7e3f 96b7 1240
00000050: 7c5c 5d3f cd82 0140 8711 1140 9980 e83e
00000060: 16b2 d83f f38a 24bf cad9 ecbf e30c e13f
00000070: 000a afbe bf79 e1bf 0aeb 69bf 99fe 83bf
00000080: 5809 313f 5a29 88bf 1587 683f cf91 cdbf
00000090: efbb d0be c487 c93f 28df 1340 7f55 b83f
000000a0: 1070 8a3f df61 313f bafe 28be b8c8 c73e
000000b0: 48c5 9a3e e46f 213f 5f56 1240 7696 9f3f
000000c0: be8f ba3f de6f d2be 8974 89bf 3076 18bf
000000d0: b5a6 563f aec8 823f 298b 11c0 7b0c 1ec0
000000e0: d574 86be 27c2 a23d 9a4c 363e d7b3 bd3f
000000f0: 1e07 b6bd cb8c dc3f 7119 c7bf 9df7 0840
00000100: 749f b4bf 14eb c13e 5734 05bf 3fe2 e63f
00000110: ac18 7fbd 95c7 b7bf 67ab 013f 3cf9 7b3f
00000120: 5b8c ccbf d17a aebd 707e a63f fb73 e83e
00000130: 707b 053d 0d5e fe3e a45f 11c0 2fd6 273f
00000140: 15c0 d9bf 5bc3 f3bd d8fd 9b3d d89e d53e
00000150: 5f3d 17c0 52af 2e3d 0f39 a03f c77b 8bbd
00000160: 1697 8b3e 91c1 3fbf e6e3 303e 8450 36bf
00000170: fa14 0fbf cf07 f03f 18ab dc3f 53f4 773f
00000180: f3d2 16c0 a2b3 e5bd 96b4 3f3f 8bc7 8c3c
00000190: 1a1a acbf e392 c13f d73a a83f f98b 47c0
000001a0: f596 b03e ad57 9e3f da4d f4be 6dd1 06c0
000001b0: 8744 8d3e 7f16 f43f 8685 423f 73c3 c83e

arith.constant1 f4 [7]
0.19623664 0.7533287 0.37427688 0.1814181 0.2795418 0.193653 -0.12938103
00000000: 42f2 483e 26da 403f 38a1 bf3e abc5 393e
00000010: 1a20 8f3e f94c 463e 767c 04be

sequential_26_1/dense_52_1/BiasAdd/ReadVariableOp f4 [16]
-0.17213634 -0.13553633 -0.06469595 1.4028093 0.46608883 -0.16358496 -0.024068788 0.69348925
1.2862154 0.32118922 -0.48141485 0.91251713 -0.07203705 0.82391846 0.27893507 0.98095363
00000000: 8244 30be 09ca 0abe 4f7f 84bd 418f b33f
00000010: 32a3 ee3e d182 27be e82b c5bc 8388 313f
00000020: b5a2 a43f ea72 a43e 027c f6be b99a 693f
00000030: 2988 93bd 52ec 523f 94d0 8e3e c71f 7b3f

sequential_26_1/dense_52_1/MatMul f4 [16, 4]
-1.7161772 0.17184341 0.7598614 1.0092298 1.7116559 1.4131666 0.85029364 -0.022539455
0.9610226 -0.97182924 0.9874477 1.0367336 0.6129864 0.23365572 1.0520386 -1.5014019
-1.7561561 -0.4747798 1.1908188 0.09878286 1.4090896 -1.2454163 -1.4087665 1.4093418
1.8159759 -1.7998016 0.023919387 -1.8162287 -1.4251006 -1.4230568 -1.4240135 0.7299863
-1.4562219 0.16999143 -1.286025 1.4562073 -0.1391088 0.059240833 1.3274431 1.2780771
1.4112604 0.9226445 0.41499177 0.34361914 1.5782889 -0.9128427 -1.9695663 -0.52211595
-0.25060996 -0.23853287 -0.16877735 0.07030379 1.3329802 -1.2986437 1.3323509 -0.85767245
-1.8508023 1.9331304 -0.2787566 -0.36150855 -0.1511178 1.2339549 -0.9808165 -1.0826914
00000000: b2ab dbbf b8f7 2f3e 4786 423f 712e 813f
00000010: 8a17 db3f a5e2 b43f d8ac 593f aaa4 b8bc
00000020: 9405 763f cdc9 78bf 5fc9 7c3f b0b3 843f
00000030: adec 1c3f 7243 6f3e 33a9 863f f02d c0bf
00000040: b9c9 e0bf 5716 f3be c06c 983f ab4e ca3d
00000050: 0c5d b43f cd69 9fbf 7652 b4bf 5065 b43f
00000060: e671 e83f e65f e6bf 97f2 c33c 2f7a e8bf
00000070: b269 b6bf ba26 b6bf 1346 b6bf 62e0 3a3f
00000080: 7b65 babf 3c12 2e3e 789c a4bf 0065 ba3f
00000090: 8a72 0ebe 84a6 723d a8e9 a93f 0898 a33f
000000a0: 2ea4 b43f 6e32 6c3f cd79 d43e d9ee af3e
000000b0: 5f05 ca3f 0fb0 69bf c01a fcbf 64a9 05bf
000000c0: f34f 80be f641 74be f8d3 2cbe 6ffb 8f3d
000000d0: 189f aa3f f539 a6bf 798a aa3f 6c90 5bbf
000000e0: 17e7 ecbf d170 f73f 2fb9 8ebe a617 b9be
000000f0: a0be 1abe 3cf2 9d3f ca16 7bbf a295 8abf
