MYModel.tflite (tflite, 2300 bytes, 4 tensors)

arith.constant f4 [7, 12]
00000000: 71fc a6bf 461e d03e 607d cdbc 9e54 7f3d
00000010: 894d b43e 7a8d 4fbf 6270 fb3e 5d4e aa40
00000020: d2fb f53d 599b cbbe da8c b43f 6672 3540
00000030: d4f8 2d3f c411 80bf 4019 8d3d 257d f13e
00000040: 57c6 c2be 011e 523f 2ea9 b4be c15b 6bbf
00000050: 31d0 e23d 4dc7 ea3d 2e8d 0b40 6a2a 7b40
00000060: d624 9d40 92d9 b5be 740b 843e f4f6 8340
00000070: 7d45 d33e 659c cbbf f969 27bf 3b34 653e
00000080: 31b6 4340 23f3 72bf 0914 b6be fd61 f13e
00000090: 9ffa 2f3f 6b24 8b3d c908 013f 262f ccbd
000000a0: 47ee 8bbe 39ed 0e40 735c 723e 8ee6 4abe
000000b0: 6ffa abbf 056b 73bf 243b b33f 42f5 5bbe
000000c0: e8a2 a8bf fe3e 8f3f 5f32 07bf c475 16c0
000000d0: a007 6b3e c13f 293e 9028 fb3f b77c 88be
000000e0: 8965 babf 61c6 8ebf 3ffa aabf 43cc 2840
000000f0: 62de 813e 36e3 c43f 705a 50bd 14bb 123f
00000100: 25d6 bfbe e59c 3abf 38cc 8abd 7690 7640
00000110: 4cb1 31bf 63e3 52bf 21a1 4ec0 f8e9 e53e
00000120: e3ac bb3e f007 0d3f 606d d4be 6b63 e3be
00000130: c780 babd 5169 443d d354 0f3f 2551 09c0
00000140: cfc5 0fbd da06 713f 054e 8cbf e6e5 843f
-1.3045789 0.40648097 -0.025084198 0.062336557 0.35215405 -0.8107525 0.4910918 5.322066
0.120109215 -0.39766958 1.4105484 2.8351073 0.67957807 -1.0005422 0.06889582 0.4716579
-0.38041946 0.8207703 -0.35285324 -0.9193688 0.110748656 0.11463795 2.180492 3.9244637
4.9107466 -0.35517555 0.25789988 4.1238956 0.41263953 -1.5907103 -0.65396076 0.22383206
3.057995 -0.9490225 -0.3556216 0.47145072 0.6874179 0.067940556 0.5040403 -0.0996993
-0.2733023 2.233229 0.23668079 -0.19814512 -1.3435801 -0.95085174 1.4002423 -0.21480277
-1.3174715 1.1191099 -0.52811235 -2.3509378 0.22952127 0.16528226 1.9621754 -0.2665765
-1.4562236 -1.115429 -1.3357619 2.6374671 0.25364977 1.5381839 -0.050867498 0.5731671
-0.37468067 -0.7289565 -0.06777233 3.8525672 -0.6941116 -0.82378215 -3.2285845 0.44905066
0.3665534 0.55090237 -0.41489697 -0.44411787 -0.091065936 0.047952 0.55988806 -2.1455777
-0.035100754 0.9415108 -1.096131 1.038266

sequential_1/dense_1_2/BiasAdd/ReadVariableOp f4 [7]
00000000: 0c40 8bbe 457a 2cbd 9386 0a3e 5a8a c43d
00000010: b681 b13e 0a10 4d3f 67a3 21be
-0.271973 -0.042108793 0.13527898 0.09596701 0.34669274 0.801026 -0.1578499

sequential_1/dense_1/BiasAdd/ReadVariableOp f4 [12]
00000000: b1b4 3a3f def6 043f 0000 0000 2e2f 4a3f
00000010: c9b9 83bd f1a1 ea3e 304f b73e 7228 8a3f
00000020: dcd0 093f 9bba 60b9 fd71 9c3e cc0d dc3f
0.72931963 0.5193919 0.0 0.7897824 -0.0643192 0.45826676 0.35802603 1.0793593
0.5383432 -0.0002143182 0.30555716 1.719171

sequential_1/dense_1/MatMul f4 [12, 4]
00000000: fe67 c53f aea8 17c0 82fb 3abf fce1 543f
00000010: a74c d83d e775 8e3f 9e70 0340 5383 8fbe
00000020: 75e0 18bf d402 cdbe 6094 94bd 066c 10be
00000030: cfbd bbbf a95b ff3e 09a3 37bf 8e6a 643f
00000040: 6ee7 c7be 6083 81be c996 6f3d d040 06bf
00000050: 1386 923f 4f50 0a3f 211b cdbf c9fe 7e3e
00000060: f1e8 0240 6e4b c03e 0217 9e3f 7460 0abe
00000070: e1b2 a83f f33b 8abf 3812 8abf a98d a8bf
00000080: af65 9dbf 1523 8e3f 288f 0bbf 583f 9e3f
00000090: 0dc1 983f 97b1 98bf 113c 6d3f 0f98 983f
000000a0: f0e1 32c0 6a88 63bf 7eed f33f 2e54 153f
000000b0: 6cb3 6c3f 2f41 29c0 cbf3 05bf 77bc 07c0
1.5422361 -2.3696704 -0.7304002 0.83157325 0.10561495 1.1129731 2.0537486 -0.2802988
-0.59717494 -0.4004122 -0.07254863 -0.14103708 -1.46673 0.4987462 -0.71733147 0.8922509
-0.39043754 -0.25295544 0.05849341 -0.52442646 1.1447166 0.5402879 -1.6023904 0.2490188
2.0454676 0.37557548 1.2350771 -0.13513356 1.317959 -1.0799545 -1.078681 -1.3168231
-1.2296656 1.1104456 -0.54515314 1.2363081 1.1933914 -1.1929196 0.9266978 1.1921405
-2.7950401 -0.88880026 1.9056852 0.58331573 0.92461276 -2.6446035 -0.52325124 -2.120878
